hey_dee_va.tflite (tflite, 206976 bytes, 9 tensors)

arith.constant f4 [1, 32]
-0.066759996 -0.05182212 -0.33215576 -0.01735189 0.023276128 -0.33511642 0.14048716 0.019519446
-0.36774278 0.21026182 -0.019725287 0.053202324 0.02182331 0.050590117 -0.030526208 0.08392048
0.016976519 -0.35511085 -0.12436225 -0.0106760105 -0.37496647 0.1535339 0.0753695 0.22968583
-0.34983295 0.047466524 -0.01732063 -0.36828887 0.09212308 -0.10575966 0.15493818 0.11515178
00000000: 77b9 88bd 6e43 54bd 5210 aabe 8d25 8ebc
00000010: 94ad be3c 6194 abbe dedb 0f3e 3fe7 9f3c
00000020: c848 bcbe e04e 573e ed96 a1bc aeea 593d
00000030: ccc6 b23c 9537 4f3d 1912 fabc 80de ab3d
00000040: 5712 8b3c 17d1 b5be a3b1 febd 6fea 2ebc
00000050: 9bfb bfbe fe37 1d3e 535b 9a3d c332 6b3e
00000060: 4e1d b3be 426c 423d fee3 8dbc 5c90 bcbe
00000070: 06ab bc3d 8598 d8bd 1da8 1e3e b2d4 eb3d

arith.constant1 f4 [32, 32]
-0.04040771 0.047077317 0.05865822 0.015054163 -0.116344355 -0.024262866 0.018016238 0.15631916
-0.013557441 0.024995092 -0.1683813 -0.12958875 -0.05560612 -0.018701978 -0.16359024 0.055143062
0.19890814 0.16359724 0.06234333 -0.04199378 -0.06924988 -0.12386136 -0.0911727 -0.025193324
0.12768753 0.079928145 0.055681936 -0.022690633 0.13029873 -0.13694334 0.14763288 0.14836586
0.0437015 -0.16557893 -0.13322438 0.08265781 0.11991772 0.11881972 -0.004638958 -0.108038746
0.07627793 0.026785024 -0.14208032 0.067181356 0.047696427 0.10176 -0.06430927 0.14835465
0.048662484 0.05648193 -0.07876725 -0.118036084 -0.09212706 0.115668155 -0.06938235 -0.013297535
0.09889209 -0.142268 -0.055722486 -0.058237012 0.03017757 0.009937515 -0.13953798 -0.13802432
0.09075724 0.111462496 0.14301945 -0.16796742 0.112191 -0.13861476 0.14407773 0.0023615162
-0.08360608 0.07768719 -0.118053325 0.21268865 0.04913515 -0.06001302 0.05649865 0.008993637
-0.00991595 -0.005489984 -0.019635778 0.027447898 -0.1432412 0.025514117 0.046062905 0.12957855
-0.087659985 -0.080463946 -0.01531262 -0.08375026 0.0014045425 -0.06885334 -0.17531922 0.14751984
0.08040159 0.12808904 -0.13665347 -0.14611068 0.04255314 -0.055386093 -0.10229533 0.036326356
0.05935842 0.06635515 0.16250631 0.010436857 0.057592645 0.036031835 0.13099109 0.17288741
0.09677187 0.065789364 0.007860356 -0.067636095 -0.0100332815 -0.093559936 0.10968763 0.084054075
-0.096433416 0.054306176 -0.08902099 -0.16669177 0.11084982 0.009870147 0.1362081 0.06295962
-0.08486447 0.18983242 0.04426649 -0.027452458 -0.023267027 0.038443945 0.1343273 0.15550001
-0.12238952 0.08404357 0.12193534 0.075265944 -0.03707283 -0.04613481 -0.066397786 -0.11973223
-0.0010867398 0.12173282 -0.07989002 -0.04198149 0.021273507 -0.16505714 0.08083798 -0.004619767
0.0040494655 0.12721457 -0.025613265 0.14213277 -0.03957723 0.019015944 -0.16519158 0.052029673
-0.01289311 0.009625639 0.11587779 -0.06979704 0.035717264 0.05205196 -0.07426969 0.00086480187
-0.087621786 0.13128129 0.121816896 -0.053784747 0.033711597 0.082426436 0.108524315 0.08728831
-0.04444572 0.11874449 -0.17152128 0.15705483 -0.038100496 -0.065747656 -0.11963022 -0.080413
0.047488723 0.11829977 0.12454437 -0.087298885 0.09940439 0.06321888 -0.012078015 0.07262878
0.14660119 0.0013285741 -0.036387492 -0.017665595 0.12889953 0.024780778 -0.16595043 -0.059978575
-0.13928977 0.08682543 0.11393386 -0.05137576 -0.14194971 0.02456177 0.034634907 0.18126349
0.18091492 0.030780986 -0.15571542 -0.18912178 0.11859979 -0.07353105 -0.09607692 -0.1088037
0.04043252 0.012347933 0.042784467 0.18676303 -0.0020567547 0.1162378 0.021162642 0.008717297
0.08856488 0.1595038 -0.1220345 -0.092920534 -0.02784673 -0.059111025 0.080843545 -0.007194881
0.08037868 0.056309056 -0.053559855 0.13163255 -0.06345525 0.044894975 -0.0681959 -0.04946926
-0.056083366 0.01040241 -0.09809998 0.114149295 0.03030135 0.141048 0.11617396 -0.18237174
0.106898494 0.05361323 0.0100247795 -0.13159588 -0.09901435 0.21017067 -0.12449989 -0.024688197
00000000: 8e82 25bd 25d4 403d 9a43 703d bca5 763c
00000010: f345 eebd ebc2 c6bc ca96 933c 2112 203e
00000020: 0720 5ebc 82c2 cc3c 266c 2cbe eab2 04be
00000030: 3ec3 63bd e434 99bc 3384 27be b1dd 613d
00000040: 93ae 4b3e 0986 273e b85b 7f3d ab01 2cbd
00000050: e2d2 8dbd 06ab fdbd c1b8 babd 3b62 cebc
00000060: 85c0 023e 5eb1 a33d be12 643d b5e1 b9bc
00000070: 086d 053e e03a 0cbe 132d 173e 38ed 173e
00000080: 5800 333d 868d 29be f96b 08be 7f48 a93d
00000090: 6c97 f53d c157 f33d 6602 98bb 6b43 ddbd
000000a0: 9a37 9c3d 446c db3c 817d 11be 6196 893d
000000b0: 545d 433d 8c67 d03d 94b4 83bd 48ea 173e
000000c0: 5052 473d 9959 673d b950 a1bd e7bc f1bd
000000d0: 1dad bcbd 6de3 ec3d 5518 8ebd e7dd 59bc
000000e0: f087 ca3d b4ae 11be 433d 64bd ef89 6ebd
000000f0: f436 f73c f5d0 223c 0be3 0ebe 3f56 0dbe
00000100: efde b93d 7346 e43d b173 123e a7ff 2bbe
00000110: 65c4 e53d 07f1 0dbe 1d89 133e abc3 1a3b
00000120: aa39 abbd 761a 9f3d f1c5 f1bd 0ecb 593e
00000130: f041 493d 36d0 75bd 216b 673d 0c5a 133c
00000140: 8276 22bc 53e5 b3bb 36db a0bc 6ada e03c
00000150: d2ad 12be fb02 d13c 75ac 3c3d 3db0 043e
00000160: 1487 b3bd 48ca a4bd c9e1 7abc 4285 abbd
00000170: a018 b83a fb02 8dbd e286 33be 710f 173e
00000180: 97a9 a43d c629 033e e3ee 0bbe 0a9e 15be
00000190: 344c 2e3d 87dc 62bd 3780 d1bd f2ca 143d
000001a0: d121 733d 35e5 873d 0e68 263e 5aff 2a3c
000001b0: 44e6 6b3d 1e96 133d 8722 063e 6609 313e
000001c0: 5530 c63d 93bc 863d b9c8 003c cb84 8abd
000001d0: a262 24bc 5a9c bfbd e8a3 e03d 8b24 ac3d
000001e0: e27e c5bd 2770 5e3d a350 b6bd 3fb1 2abe
000001f0: 3b05 e33d 66b6 213c 237a 0b3e f9f0 803d
00000200: 6ccd adbd 6e63 423e c750 353d fae3 e0bc
00000210: 7e9a bebc 6677 1d3d 198d 093e 653b 1f3e
00000220: 5ba7 fabd 091f ac3d 3cb9 f93d 0825 9a3d
00000230: aed9 17bd dbf7 3cbd 90fb 87bd 2c36 f5bd
00000240: f070 8eba 0f4f f93d 619d a3bd c8f4 2bbd
00000250: c745 ae3c bd04 29be 628e a53d 6a61 97bb
00000260: 61b1 843b 8944 023e e9d2 d1bc 418b 113e
00000270: bc1b 22bd 53c7 9b3c fb27 29be 111d 553d
00000280: 9f3d 53bc dbb4 1d3c 5651 ed3d c0f1 8ebd
00000290: 444c 123d 7034 553d b51a 98bd dfb3 623a
000002a0: 0d73 b3bd 9a6e 063e 237b f93d 654d 5cbd
000002b0: 2c15 0a3d 31cf a83d ff41 de3d 37c4 b23d
000002c0: b70c 36bd 5030 f33d 46a3 2fbe fbd2 203e
000002d0: 440f 1cbd b5a6 86bd b000 f5bd 92af a4bd
000002e0: 8983 423d 2647 f23d 1e11 ff3d c2c9 b2bd
000002f0: 8794 cb3d e678 813d dee2 45bc 66be 943d
00000300: 9f1e 163e 8d23 ae3a 0d0b 15bd 70b7 90bc
00000310: 3dfe 033e 0f01 cb3c e9ee 29be 18ac 75bd
00000320: faa1 0ebe 88d1 b13d 2856 e93d 646f 52bd
00000330: 445b 11be c435 c93c 55dd 0d3d 239d 393e
00000340: c341 393e 6828 fc3c dd73 1fbe 24a9 41be
00000350: 72e4 f23d 7297 96bd fac3 c4bd 79d4 debd
00000360: 929c 253d fc4e 4a3c c43e 2f3d cf3e 3f3e
00000370: 9eca 06bb 150e ee3d 475d ad3c fed2 0e3c
00000380: 8161 b53d f754 233e 39ed f9bd 1f4d bebd
00000390: d31e e4bc 671e 72bd 4d91 a53d 09c3 ebbb
000003a0: 949d a43d 53a4 663d 9461 5bbd afca 063e
000003b0: d3f4 81bd cbe3 373d 4baa 8bbd 47a0 4abd
000003c0: acb7 65bd df6e 2a3c a4e8 c8bd 1bc7 e93d
000003d0: 893a f83c e36e 103e 9dec ed3d a8bf 3abe
000003e0: 99ed da3d 8c99 5b3d f93e 243c 12c1 06be
000003f0: 09c8 cabd fb36 573e ccf9 febd e73e cabc

arith.constant2 f4 [32, 1536]
0.04174948 0.024884753 -0.0048568132 -0.05060078 0.0293508 -0.030185202 -0.005638699 -0.038711622
-0.013228888 0.03003698 -0.011178896 0.012204372 -0.0335449 -0.02883796 0.00947415 -0.0042831926
-0.06484645 -0.012538388 -0.013640359 0.0013143739 0.0019192332 -0.012317412 0.04033911 -0.03045996
0.012201571 -0.0028506175 -0.0147095695 -0.039985172 -0.00048882136 -0.017807813 0.03811855 0.0016083983
-0.016006904 0.01780917 -0.020110983 -0.0035048747 -0.016304623 -0.02453406 0.022252945 0.00038002973
-0.004476008 -0.0045859697 0.0024557356 0.0009625302 -0.013406783 -0.011014145 -0.0067309868 0.005308602
-0.045414597 0.023513472 0.009336692 -0.006891509 -0.02439119 -0.01846892 -0.03498234 0.013514
-0.019257577 -0.01596614 -0.0039070914 -0.02677782 0.022284051 -0.0018060833 0.041351788 -0.008080746
0.00056370825 -0.013059892 0.038032535 -0.010926736 0.008542576 0.015780132 0.01699386 -0.011356335
0.042663615 0.008235354 -0.011753988 0.016911983 0.014912039 -0.00028059204 -0.010441527 0.011529952
0.0023075857 -0.006151369 0.004101091 0.005882593 -0.0076785926 -0.039621025 -0.00204431 -0.025008371
0.0005676381 0.006575836 0.015490779 -0.0010029554 -0.0024590113 -0.0145483175 0.011356433 0.025751816
0.0028305976 -0.017976785 -0.0050530825 -0.045086138 0.026730524 0.008838193 0.015990736 -0.0058425064
-0.01666124 0.021618173 -0.01759806 0.011523597 -0.018029653 0.023065321 -0.019753637 0.0011377829
-0.03330912 0.02010891 -0.017138723 0.016904352 -0.00785857 -0.0286886 0.00011613308 -0.01362293
0.036154024 0.011302545 -0.014414656 -0.02888892 0.020633927 0.010156405 0.007602177 -0.035092156
0.012397404 0.020078873 -0.02046219 0.029430054 0.0034149878 -0.026702832 0.022585481 0.027894989
-0.0011514102 -0.00042490527 -0.00852298 0.01691471 0.0030080765 -0.0045978758 0.0102257235 -0.019863378
-0.02622066 0.041231737 0.010817195 0.02620946 -0.025799874 0.03482898 0.008826423 -0.01590223
0.010986626 0.011559162 0.022101564 -0.015841011 0.006446565 -0.0050976234 0.04002809 -0.040273987
-0.013115126 -0.01798763 0.035763033 0.0149787525 -0.0008897052 0.0036854672 0.026914548 -0.015128332
0.030598467 0.034563385 0.027623959 0.042809676 0.009869569 0.009152368 -0.012798232 -0.014684855
0.0026997752 -0.013332728 -0.030688519 0.021814318 0.0075272587 -0.03473663 0.014687401 -0.016902838
0.004958783 -0.009263852 0.019768693 0.0054192184 -0.009703277 0.027308784 0.012955973 -0.023509286
-0.009848376 0.019836703 -0.0023060178 -0.05518647 0.01616239 -0.0035134107 0.012686276 0.020074008
-0.004934115 0.024385931 0.011844996 0.0022202325 -0.037171863 0.029040547 -0.009026668 -0.004970776
-0.0062622796 0.031424083 -0.026057024 0.0013266304 -0.02893437 0.024260692 0.014933805 -0.01493372
-0.0003821748 0.00021701536 0.009403477 0.006425201 -0.0153438235 -0.014551733 0.004110297 -0.025241464
0.026757922 0.028620234 -0.0062743695 -0.0067518274 -0.0061535737 0.013722048 0.006379593 0.0052774725
0.0027110248 0.042741485 -0.020703943 0.015162701 -0.02962346 -0.012433373 -0.0033455964 -0.028872894
-0.032272756 0.012685876 -0.013707746 0.025915544 0.004367336 0.04834166 -0.016658816 0.006589275
0.0010617151 -0.012110347 0.018416796 -0.017891876 0.042594165 -0.0036421784 -0.014679281 -0.0071622645
00000000: 8101 2b3d 1cdb cb3c e725 9fbb c342 4fbd
00000010: 1771 f03c f546 f7bc d6c4 b8bb 1490 1ebd
00000020: fabd 58bc 1d10 f63c b027 37bc d9f4 473c
00000030: 6166 09bd 963d ecbc 7739 1b3c 065a 8cbb
00000040: 37ce 84bd d06d 4dbc d07b 5fbc 1247 ac3a
00000050: c88e fb3a f8ce 49bc 9f3a 253d 2b87 f9bc
00000060: 19e9 473c 6dd1 3abb 6800 71bc 7ec7 23bd
00000070: 3f24 00ba b1e1 91bc 3222 1c3d e4d0 d23a
00000080: e920 83bc 89e4 913c cabf a4bc 0ab2 65bb
00000090: 4691 85bc a7fb c8bc cf4b b63c ba3e c739
000000a0: 7aab 92bb e745 96bb 68f0 203b 4f52 7c3a
000000b0: 20a8 5bbc ac74 34bc 9c8f dcbb c8f3 ad3b
000000c0: a804 3abd 539f c03c edf8 183c 2bd2 e1bb
000000d0: 08d0 c7bc 224c 97bc a449 0fbd d369 5d3c
000000e0: 11c2 9dbc 6ccb 82bc 0f07 80bb 295d dbbc
000000f0: 0b8d b63c 19ba ecba 7e60 293d 1b65 04bc
00000100: d2c5 133a 28f9 55bc 01c8 1b3d 0d06 33bc
00000110: 29f6 0b3c 5645 813c b536 8b3c ec0f 3abc
00000120: 0bc0 2e3d 94ed 063c cd93 40bc 008b 8a3c
00000130: a051 743c 6d1c 93b9 f012 2bbc 20e8 3c3c
00000140: dd3a 173b 6c91 c9bb 7262 863b c4c2 c03b
00000150: b49c fbbb a849 22bd d5f9 05bb 5bde ccbc
00000160: 8ccd 143a 1c7a d73b 09cd 7d3c 9975 83ba
00000170: 5d27 21bb 115c 6ebc 5510 3a3c 79f5 d23c
00000180: 8c81 393b 0d44 93bc 5494 a5bb 3eac 38bd
00000190: f9f9 da3c 11ce 103c 01ff 823c 7f72 bfbb
000001a0: 277d 88bc 9818 b13c cf29 90bc 78cd 3c3c
000001b0: ecb2 93bc 7cf3 bc3c 61d2 a1bc a921 953a
000001c0: 256f 08bd 71bb a43c 8266 8cbc ff7a 8a3c
000001d0: 3bc1 00bc 5b04 ebbc 798c f338 b632 5fbc
000001e0: 3e16 143d 4f2e 393c 732b 6cbc 75a8 ecbc
000001f0: 7b08 a93c 0d67 263c af1b f93b cbbc 0fbd
00000200: 7b1e 4b3c 737c a43c 53a0 a7bc 4c17 f13c
00000210: fdcd 5f3b e6bf dabc 3005 b93c 0884 e43c
00000220: eaea 96ba d2c5 deb9 f8a3 0bbc b890 8a3c
00000230: 2623 453b c7a9 96bb cb89 273c 86b8 a2bc
00000240: b6cc d6bc 9ce2 283d 9b3a 313c 39b5 d63c
00000250: 425a d3bc d5a8 0e3d b49c 103c 6545 82bc
00000260: 4001 343c a462 3d3c 570e b53c 02c5 81bc
00000270: b53d d33b f709 a7bb 7ff4 233d 56f6 24bd
00000280: d3e0 56bc cb5a 93bc 427c 123d 7169 753c
00000290: 1b3b 69ba e187 713b e67b dc3c d3dc 77bc
000002a0: a3a9 fa3c 5692 0d3d a44b e23c 3359 2f3d
000002b0: f9b3 213c d0f3 153c adaf 51bc bf98 70bc
000002c0: b6ee 303b 8471 5abc 7d66 fbbc f1b3 b23c
000002d0: 39a7 f63b ff47 0ebd 6da3 703c d277 8abc
000002e0: 497d a23b 69c7 17bc f4f1 a13c b393 b13b
000002f0: 7efa 1ebc acb6 df3c 4a45 543c 8c96 c0bc
00000300: 155b 21bc 9580 a23c 8f20 17bb 350b 62bd
00000310: fd66 843c 4041 66bb 19da 4f3c 3f72 a43c
00000320: 5bae a1bb 01c5 c73c 8411 423c 5281 113b
00000330: 8641 18bd 71e6 ed3c 97e4 13bc e4e1 a2bb
00000340: cf33 cdbb 8ab6 003d 8a75 d5bc 54e2 ad3a
00000350: c607 edbc 5cbe c63c ebac 743c 90ac 74bc
00000360: a25e c8b9 9e8e 6339 0b11 1a3c 7e8a d23b
00000370: a964 7bbc 646a 6ebc acaf 863b 30c7 cebc
00000380: 6e33 db3c fb74 ea3c 3a99 cdbb 6f3e ddbb
00000390: eba3 c9bb 71d2 603c e80b d13b a6ee ac3b
000003a0: 73ab 313b b211 2f3d 519b a9bc fa6c 783c
000003b0: e6ac f2bc 59b5 4bbc cb41 5bbb d986 ecbc
000003c0: 7030 04bd 6cd8 4f3c 7496 60bc d64c d43c
000003d0: df1b 8f3b e801 463d 1278 88bc d8ea d73b
000003e0: 3f29 8b3a 7a6a 46bc d2de 963c fc91 92bc
000003f0: 3877 2e3d 9db1 6ebb 5e81 70bc 6eb1 eabb

model_8/tf.__operators__.add/AddV2/y f4 [32]
0.020214804 -0.02324664 0.018111728 0.02278174 -0.019145671 0.020627117 0.023164647 -0.011752598
-0.008759883 -0.004201242 -0.007950094 0.02201304 -0.0069057215 -0.01227737 -0.020392109 -0.02619922
0.013193894 -0.02153384 -0.017097045 0.026991699 0.0134571735 -0.014291469 -0.004735962 0.0025661374
-0.00417519 -0.0114750685 0.0021114473 -0.0016817941 -0.0044704997 0.014822468 -0.017272186 -0.020594018
00000000: 8499 a53c bd6f bebc 0c5f 943c c6a0 ba3c
00000010: 62d7 9cbc 33fa a83c c9c3 bd3c f88d 40bc
00000020: 9d85 0fbc 92aa 89bb 1c41 02bc b154 b43c
00000030: 6449 e2bb 0627 49bc 5a0d a7bc bf9f d6bc
00000040: 342b 583c bc67 b0bc 1a0f 8cbc b21d dd3c
00000050: 7a7b 5c3c c426 6abc 2130 9bbb a42c 283b
00000060: 08d0 88bb ed01 3cbc 3560 0a3b a56f dcba
00000070: 457d 92bb f0d9 723c 667e 8dbc c9b4 a8bc

model_8/tf.__operators__.add_1/AddV2/y f4 [32]
0.051218543 0.03037207 0.03857014 -0.12526938 0.09099865 0.119788475 -0.10182674 -0.18346374
-0.022770854 0.07649127 -0.0020124104 -0.045306835 0.03183729 0.05034518 -0.16154999 -0.08234528
-0.08951674 -0.024649695 0.019518968 -0.040724207 -0.05355128 0.08207209 -0.031047344 -0.023492118
-0.0030621113 0.015331457 -0.034249745 -0.091121376 0.11064516 -0.07446637 -0.1394766 0.033358704
00000000: 89ca 513d d9ce f83c b9fb 1d3d 9e46 00be
00000010: 805d ba3d a953 f53d 8a8a d0bd ebdd 3bbe
00000020: f189 babc 74a7 9c3d a5e2 03bb a993 39bd
00000030: d167 023d bf36 4e3d 5c6d 25be a4a4 a8bd
00000040: 8d54 b7bd 28ee c9bc 3ee6 9f3c 6dce 26bd
00000050: 9658 5bbd 6915 a83d 0057 febc 8b72 c0bc
00000060: b4ad 48bb cb30 7b3c 7649 0cbd d89d babd
00000070: ee99 e23d d381 98bd f4d2 0ebe 23a3 083d

model_8/tf.math.add_2/Add/y f4 [1, 32]
-0.009269986 -0.022165297 0.004681509 -0.015949314 0.022758795 0.039021637 -0.021202277 -0.012104254
0.00035995452 0.019247543 -0.0150683215 0.019254755 -0.015877482 -0.023002548 -0.02910573 -0.009191284
0.00793216 -0.013954252 -0.009808762 0.021579146 0.027080653 0.02104858 -0.0072816988 0.028481077
-0.03711432 -0.018431624 0.031356603 0.0021257135 0.015661728 -0.024624728 0.016520381 -0.009196936
00000000: 24e1 17bc ff93 b5bc 5867 993b 23a8 82bc
00000010: a770 ba3c 27d5 1f3d 66b0 adbc ec50 46bc
00000020: 47b8 bc39 06ad 9d3c 1fe1 76bc 26bc 9d3c
00000030: 7e11 82bc d76f bcbc 246f eebc 0a97 16bc
00000040: e4f5 013c 60a0 64bc eeb4 20bc c0c6 b03c
00000050: 3fd8 dd3c 126e ac3c 519b eebb 2651 e93c
00000060: 2f05 18bd ebfd 96bc c86f 003d 8e4f 0b3b
00000070: 064d 803c ccb9 c9bc c055 873c bfae 16bc

model_8/tf.math.add_5/Add/y f4 [1, 32]
-0.016410064 -0.06764667 0.2797438 0.01801741 -0.00022789903 0.315503 0.030115187 -0.037537165
0.28718004 0.068423845 -0.023651036 -0.01645721 -0.00626645 -0.020849213 -0.0039836997 -0.0062126257
0.0035160198 0.28266117 0.04920664 -0.08175283 0.36509344 0.015539376 -0.011688088 0.052703314
0.31877738 0.006143886 -0.011671611 0.27585563 0.008889493 0.009658407 0.057819974 -0.014107367
00000000: 666e 86bc 568a 8abd 943a 8f3e 3f99 933c
00000010: 2ef8 6eb9 9c89 a13e 20b4 f63c 92c0 19bd
00000020: 4309 933e cd21 8c3d d1bf c1bc 45d1 86bc
00000030: cb56 cdbb f8cb aabc b289 82bb 4893 cbbb
00000040: 066d 663b f7b8 903e e78c 493d 076e a7bd
00000050: 87ed ba3e de98 7e3c 657f 3fbc 6edf 573d
00000060: ca36 a33e a752 c93b 493a 3fbc f33c 8d3e
00000070: 3ca5 113c 4c3e 1e3c a3d4 6c3d 9622 67bc

model_8/tf.math.multiply_10/Mul/y f4 [1, 32]
1.0140133 0.97344995 1.0021751 0.98888355 1.001167 0.9599391 0.9953334 0.9864181
0.99748313 0.99333763 0.9932905 1.044926 0.9982136 0.9785091 0.989772 1.0010695
1.0129546 0.9897458 0.9945045 0.99061716 0.94334114 1.0131334 0.97970533 0.9793738
0.9756553 0.98808 1.032307 1.0138189 0.9697816 0.97885 1.0104009 0.98376495
00000000: 30cb 813f 0434 793f 4647 803f 7927 7d3f
00000010: 3e26 803f 92be 753f 2bce 7e3f e685 7c3f
00000020: 0e5b 7f3f 604b 7e3f 4948 7e3f 23c0 853f
00000030: ed8a 7f3f 937f 7a3f b361 7d3f 0c23 803f
00000040: 7fa8 813f fb5f 7d3f d997 7e3f 1699 7d3f
00000050: ce7e 713f 5bae 813f f8cd 7a3f 3eb8 7a3f
00000060: 8cc4 793f d0f2 7c3f a322 843f d1c4 813f
00000070: 9b43 783f ea95 7a3f d154 813f 05d8 7b3f

model_8/tf.math.multiply_22/Mul/y f4 [1, 32]
0.9923314 0.9424631 1.2552397 1.0158176 0.9996194 1.3425678 1.053532 0.98337597
1.2908969 1.0558349 0.98017156 1.0110006 0.9823188 0.9883063 0.9981849 0.99742883
1.0114459 1.2735895 1.025188 0.9117279 1.4497927 1.0193404 0.9905529 1.0848619
1.3558407 1.007523 0.996087 1.2603341 1.0339503 1.00361 1.0759026 1.0267045
00000000: 6e09 7e3f 4345 713f b2ab a03f 5006 823f
00000010: 0fe7 7f3f 43d9 ab3f 23da 863f 87be 7b3f
00000020: 1c3c a53f 9925 873f 86ec 7a3f 7868 813f
00000030: 3f79 7b3f a401 7d3f 0c89 7f3f 7f57 7f3f
00000040: 0f77 813f fb04 a33f 5c39 833f 0067 693f
00000050: cf92 b93f bf79 823f e094 7d3f c1dc 8a3f
00000060: 308c ad3f 83f6 803f 8fff 7e3f a152 a13f
00000070: 7c58 843f 4b76 803f 2db7 893f 0e6b 833f
